weight.pt (torch, 540728 bytes, 10 tensors)

model.0.weight f4 [16, 3, 3, 3]
00000000: 2bcf 403d a398 573d ebbc 3e3e bc58 5bbd
00000010: 8499 8a3d 9cf8 e53d 2999 bbbd 383f bbbd
00000020: 6a94 553e 66b5 55be bd27 263e 53f5 07bd
00000030: 8e7e 12be 33c4 eebd 0588 e2bd 8c9a 163d
00000040: ed7c aabc c5a0 613d f84a 493d 60a2 54bd
00000050: 817a 543e 21e2 f8bd 7d50 92bd 1639 efbd
00000060: d41a d5bd 002a dfbc 4351 7d3d baaa 803d
00000070: 6641 4ebe 3d2f 8abd 07d8 09be dd58 02be
00000080: a4d4 26be c28e 8e3c 238b 003e 0e47 fc3d
00000090: d089 a4bd 0608 40be fe22 103e 6f8d 5bbe
000000a0: 4f20 8ebb afc0 373e e5d9 3e3d f91e 05be
000000b0: 4d77 fd3d eecf 3e3e 5a9c 2e3e 13a9 80bd
000000c0: bec8 b5bd 379e 01be 839a c13d 14a0 243e
000000d0: fe24 a1bd 71aa 3d3e 996f c83c e183 4ebe
000000e0: b07a b6bd 8ace f0bd 0128 343d 5f01 3abe
000000f0: 260f 6dbd fa1b 0fbc 282d 36be bb87 4ebe
00000100: bb81 22be 3006 1cbe d45b 34be 5079 61be
00000110: 7a30 83bc 969b d93d ff9c d9bb 52c6 413c
00000120: 3980 a5bd 7d04 d93d 338b 2b3e ec5a 6e3c
00000130: 506d f8bd f800 9a3d 1945 19bc 9e7b a63d
00000140: d0f7 c0bc 1989 fd3d 7693 5d3d 512f 70be
00000150: 70bf 5bbd f0f8 94bc 56a3 8abe 8483 a93d
00000160: 2eba d23d 5e85 743c 1c9e 0c3e fc4a 513d
00000170: 5f9c 503c 3cf5 8c3e 39e5 6c3e 2998 00be
00000180: 14b2 c43d 5d61 f03d beb0 0c3e d8aa 123c
00000190: 0466 a03c 5857 71be f6b3 74bd 809e fabd
000001a0: 943c b0bd af9c dfbd ab34 673c e1e0 52be
000001b0: a2ad 4cbe fa8c 153e 8a03 e83c 3662 35bd
000001c0: 5f97 e8bd 80c7 e3bd 3f59 96bd 5f5d a93d
000001d0: 2913 313e afaf 893a 7e0d 7c3e 4b47 603d
000001e0: 8596 7dbe 4136 1e3d 1a87 82be 0d07 c33d
000001f0: a49e 3b3d b889 693d d7b7 9e3d 44cd 9e3d
00000200: 804c 313e 87bc 4cbe 51db dbbd f4e4 6bbe
00000210: 7c1a 6fbc ee52 d93d dfa3 0f3e 0c76 76be
00000220: d6d8 1dbe 4e98 713e 8751 81bd 16e0 62bc
00000230: a81c 1b3e 58d2 35be 370d 90bc 409f 8a3d
00000240: c2e0 093e 1d25 b4bc 3201 c1bd b315 32be
00000250: c65c 1abd a710 60bd b78b debd 14e3 e63d
00000260: 287b 2abe 41eb 51be 656b 193e 052a 573e
00000270: d391 47be 134a 413d fc8c 6e3e 6bb5 3e3d
00000280: b987 cf3d 304b 3c3d f03f 4c3d 8bc1 b2bd
00000290: 7a95 823d 4325 ba3d 275e cdbc 65ce 7dbd
000002a0: 5255 773e bbfd 603e 508f 863d 5668 80be
000002b0: 5009 70be 8fd3 76be 731d b6bc dd96 0cbe
000002c0: b4d9 82be 2b68 f5bd 4f0c ba3c 8637 43be
000002d0: ad41 04bd a6bb ecbd a264 183c 135e ca3d
000002e0: 1a68 0f3e 6351 0ebe 9ce7 77bd 58c8 033e
000002f0: c017 853e 02c5 95be d80c e73d 50cc cd3d
00000300: 66bf 85be fa37 973d 925e 2b3e 7429 eebd
00000310: ac99 11bc a426 bc3e d752 89be 594b 3dbe
00000320: 8174 7b3e 5dd1 99be d27e c4bb ff6d 833e
00000330: 62a2 84be 0543 39be 8a00 3a3e 2a37 763c
00000340: 20c5 2e3e 69c3 a23b 76ad df3c a139 1d3d
00000350: 8667 40bd 11f6 993d 1375 dcbd 42dc 41bd
00000360: 3720 c7bd 7d11 0d3d 033a 7f3c 7bca 10bd
00000370: 93fa b4bc ee64 81bd 5529 6d3d 4b2f aabd
00000380: a36a 1cbe b665 96bd 6a0c 3bbe 50f3 e83d
00000390: c595 b1bd 636e b4bd a5f0 56be 8a9a 5abd
000003a0: d029 7bbd 604c 413d d9fb 943d 25dd 363e
000003b0: 9976 593e 5626 593e 265c 813e 92fb d63b
000003c0: 662d 8c3c 20e6 a6bc 5c63 97bc e025 c03d
000003d0: 75eb 2cbd 49fc c83d 2cbb aebd c9c0 9f3d
000003e0: ae0d 073e c87f cdbd 8416 383e b601 25bc
000003f0: 126f 003e e82d 1a3d d51f b1bd a096 923d
0.04707257 0.0526358 0.18626754 -0.05355142 0.06767562 0.11229059 -0.09160072 -0.091429174
0.20857397 -0.2086998 0.16226096 -0.033192944 -0.1430609 -0.11658516 -0.110611 0.03676848
-0.020811522 0.055084962 0.04914376 -0.051912665 0.20749857 -0.12152506 -0.07144258 -0.1168081
-0.10405508 -0.027241707 0.061845075 0.062825635 -0.20142135 -0.06747291 -0.13461314 -0.12729211
-0.16292053 0.017402057 0.12553076 0.1231824 -0.08034098 -0.1875306 0.14075848 -0.21440671
-0.0043373476 0.17944597 0.04659452 -0.13000096 0.123762704 0.18634006 0.17051831 -0.06282248
-0.08876179 -0.1265801 0.09453299 0.1607669 -0.07868384 0.1852205 0.024467276 -0.20167495
-0.089101195 -0.11758144 0.043983463 -0.18164586 -0.057875775 -0.0087346975 -0.17790663 -0.20168965
-0.15869801 -0.15236735 -0.17613155 -0.22018933 -0.016014326 0.10625379 -0.00664103 0.011827068
-0.08081097 0.10596559 0.16752319 0.014548045 -0.12130225 0.07519716 -0.009354853 0.08129047
-0.023555666 0.12379665 0.054095708 -0.2345555 -0.053649366 -0.018185109 -0.2707774 0.08277038
0.10289417 0.014924375 0.13732189 0.0510969 0.012732594 0.2753085 0.23134317 -0.12558044
0.09604278 0.117373206 0.13739297 0.008951865 0.019579895 -0.23568475 -0.059741937 -0.12237263
-0.08605304 -0.10918557 0.014111678 -0.20593597 -0.1998811 0.1460456 0.028322 -0.044283114
-0.11356997 -0.11122036 -0.07341241 0.08269762 0.17292465 0.0010504628 0.24614522 0.05475549
-0.2476445 0.03862596 -0.254937 0.09522829 0.04580559 0.057016104 0.077499084 0.07753995
0.17314339 -0.19993792 -0.10735191 -0.23036557 -0.014593717 0.10611521 0.14027356 -0.24068469
-0.15414748 0.23593256 -0.06314378 -0.013847372 0.1514765 -0.17756021 -0.017584426 0.06768656
0.13464645 -0.021990353 -0.09424056 -0.1739109 -0.037686132 -0.05470338 -0.10866492 0.112737805
-0.16648543 -0.20499898 0.14982374 0.21012123 -0.19489221 0.047189783 0.23295969 0.046559732
0.10133309 0.045970142 0.049865663 -0.08728322 0.06376167 0.09089138 -0.02506931 -0.06196441
0.24153641 0.2197179 0.065703034 -0.25079602 -0.23441052 -0.2410414 -0.02223084 -0.13729425
-0.2555672 -0.11982759 0.022710947 -0.1906415 -0.032289196 -0.115592286 0.0093013365 0.098812245
0.14004555 -0.13898234 -0.060523614 0.12869394 0.25994682 -0.29251868 0.112817466 0.10048735
-0.26122588 0.073837236 0.16735294 -0.11629 -0.008886736 0.3674823 -0.26821014 -0.18485774
0.24556161 -0.30042544 -0.0059965635 0.25669858 -0.25905138 -0.18091972 0.18164268 0.015027801
0.17067385 0.0049671424 0.027304392 0.038385037 -0.046973728 0.075176366 -0.10764518 -0.047329195
-0.09722941 0.034440506 0.015577796 -0.03534935 -0.02209214 -0.06318079 0.057900745 -0.08309802
-0.15275054 -0.073436186 -0.18266454 0.11374533 -0.086711444 -0.08810117 -0.20990236 -0.053370036
-0.061319172 0.047191978 0.07274599 0.17857797 0.21236648 0.2120603 0.25265616 0.0065607512
0.017111491 -0.020373404 -0.018479995 0.09382224 -0.042216737 0.098137446 -0.08531794 0.07800443
0.13188812 -0.10034138 0.17977339 -0.010071209 0.1254237 0.037641436 -0.086486496 0.07157636

model.0.bias f4 [16]
00000000: d379 503e 1be2 bcbc ecaf b33c 0b0c a53d
00000010: 6bba d1bc 90fa 60be e120 3abe a024 e43d
00000020: 5cdc 86be b120 91be 36dc 3abe e7e8 f3be
00000030: f965 4bbc c335 85be bf3c 91bc dcdf 11be
0.20358972 -0.023057034 0.021934472 0.08058938 -0.025601586 -0.21970582 -0.18176605 0.11139798
-0.26339996 -0.28345254 -0.18248066 -0.47638628 -0.012414449 -0.2601758 -0.017729161 -0.14245552

model.3.weight f4 [32, 16, 3, 3]
00000000: 09a1 d1bd e24d 0ebe e873 a2bd 0861 4cbe
00000010: 2bf7 b8be d5e1 70be 0058 86be d5bd 69be
00000020: de1a a5be 9765 f83d 7f22 033d f490 0bbd
00000030: 3490 4f3b 149f d33c 5ca2 3a3d b629 483d
00000040: f1bb 403d 804b ffbc 1e1f d93c f5fa e83d
00000050: 6c43 123d 1ff4 e93c 8fe7 d43d facf db3c
00000060: 161f 993d f00b f6bc 3990 8b3d d5ce 81be
00000070: ad3c 22be de38 cdbd a717 07be a559 29be
00000080: d829 a6bd e39f 1dbe b499 45be 71f0 acbd
00000090: a4bc 093c 9275 94bc 4f4d 46bd 6ecd 853d
000000a0: 00c2 37bd 4c50 cd3a 7e15 f1bc 8227 07bd
000000b0: 4e9c 0bbc 5d86 74bc c071 9f3d 44f4 fabc
000000c0: 11ac 5a3c f2b9 f63c d3a8 8fbd 43fa dc3d
000000d0: 40ec e23d a74d 1f3d 3b75 76be 0261 7abe
000000e0: 439f 81be bcbf 81be ae95 27be b035 0abe
000000f0: ede7 9cbe a075 6cbe 7ddf b1be 8e3b 603c
00000100: b07f e4bb 5c9f b6bd 9e24 9a3c 3568 843c
00000110: b188 143d ad8e a4bd 91dc 01bd a698 debc
00000120: 77c1 183e c136 6139 611d bf3d a621 fc3d
00000130: cbcb e73d 5ecf b13d 465a 113e 9e78 893d
00000140: a00a ec3d ca79 11bd a7bf 9abd 89fb 9cbd
00000150: c64f 39bd 9541 4b3d 81b5 c13c b8ca 0bbd
00000160: d4bf 153d 4079 52bc d409 9cbe 12e4 f5bd
00000170: f809 3bbe d75a bcbe de92 8bbe 6c99 bdbe
00000180: c058 66be 9c68 95be 5054 a0be e58c 6b3c
00000190: 8ced ac3d 55bb cd3a 2e24 c73d 352b 3e3d
000001a0: 71c7 03bd ef48 ab3d 9e53 d63d 84a8 f63d
000001b0: 7127 e23c eb02 0b3d 87fb 63bd 1b9e 1fbc
000001c0: aecb 92bd a306 aebd ba44 793c a8b0 43bc
000001d0: bd9c 8bbc b621 17bd e223 b53d 9274 f33c
000001e0: cbe1 c0bd aa1e 2ebd 707f d8bd 0122 593d
000001f0: 2522 5d3d 6819 57bd 19e2 fb39 0b26 73bd
00000200: e001 8cbc 75c8 d5bc e326 b53c b7d1 20bd
00000210: 69a3 5a3d f863 c2bd ba43 10be fa49 bdbd
00000220: bc8e 6bbe 4909 8ebe aeeb 06bd 0703 0dbe
00000230: 2b05 4abe f716 e13c 703b 3fbe d80d 82be
00000240: b076 14be 7b01 f3bc 3757 17be a2cc 4fbe
00000250: 81bd 98bd e9c2 d6bd 8f65 c53d 589c 723d
00000260: 3f0b 25bd 8529 673d f29c ae3d 0abf cf3d
00000270: b6a7 da3c 6821 2b3d 9b6f a73c 99d8 b63c
00000280: 6bf7 013d ba63 abbd e95c b8be c36d a3be
00000290: bcd0 6bbe 9b4e 82be 21f7 01be 0eff e9bd
000002a0: 9000 76be 42d9 b8be 8d47 70be 9ac4 f4bc
000002b0: 0482 55bd 21a0 aabc 840c 12be b997 1bbe
000002c0: b32e 34be e6a7 9cbd 522c b7bd 914f cabd
000002d0: 5acc 0dbc 59eb 80bd 22ac 68bc 4b69 d3bd
000002e0: 2d2f d6bd 6921 023c c1e3 8c3d f262 983c
000002f0: 50a6 42bc aad4 793c 5d95 dabd 4643 c6bc
00000300: 53ea 98bd 2e09 2dbb be6c 0b3d 66f1 343c
00000310: 3a73 123d 431d bbbd 9451 aebd e7e4 b7bc
00000320: e365 ccbc cd09 88be 7703 28be 6e31 a1be
00000330: 62f1 6c3c a096 2d3d 244e b93d 7b3c 4bbe
00000340: 8760 54be f74f 71be eae9 b6bd 1a8a 81be
00000350: 930d fdbd d7bc 083e f79f 6a3c 65c3 b23d
00000360: 39c4 96bc fbee 823d e922 c7b8 0273 ccb9
00000370: 1ce8 003e 4b92 143e e40e 103e 7805 c93d
00000380: 81e5 813d 383c c4bd a5d4 743d b979 8e3d
00000390: c613 6b3d a6f7 9a3d d720 6a3d 0e3f 123d
000003a0: 805a 3c3d eada d43c df5c 5a3c 59d6 963d
000003b0: 7747 ff3c 7481 b1bc 9ee5 5fbc 80a9 043d
000003c0: 6ff9 babd 22e5 bebd d205 51be 624f 9bbd
000003d0: 0f3c e1ba 0735 b0bd 32a4 853d b70e f23d
000003e0: 45cd 793d c376 6539 e992 d73d a367 423d
000003f0: ac5c b93a 67d2 7fbd 95ac 363d 6d40 a03c
-0.10235793 -0.13896897 -0.079322636 -0.1995889 -0.36126074 -0.23523648 -0.26239014 -0.22826321
-0.3224706 0.12128752 0.03201532 -0.034073785 0.0031671645 0.02583269 0.045564994 0.048867904
0.047054235 -0.03116393 0.026504096 0.11375991 0.03570883 0.028558789 0.10395729 0.02683257
0.07476632 -0.03003499 0.06814618 -0.25353113 -0.15843458 -0.10020612 -0.13192616 -0.16538103
-0.0811345 -0.15393023 -0.19296914 -0.08444298 0.008406792 -0.018122468 -0.04841357 0.06533323
-0.044862747 0.0015664189 -0.029429194 -0.032996662 -0.008521153 -0.014924613 0.07785368 -0.030634053
0.013346688 0.030117963 -0.070146225 0.10789921 0.11080217 0.038892414 -0.24068157 -0.24451068
-0.2531682 -0.25341594 -0.16365692 -0.13497043 -0.30645695 -0.23091745 -0.3474082 0.013686074
-0.0069732293 -0.08917114 0.018816289 0.016162971 0.03626317 -0.08035026 -0.03170449 -0.027172398
0.14917551 0.0002147807 0.093317755 0.123111054 0.11318167 0.0868213 0.14194593 0.06712459
0.11525464 -0.035516538 -0.07556086 -0.07665164 -0.045242094 0.04962309 0.023646118 -0.034128875
0.036559895 -0.012846291 -0.30476248 -0.120063916 -0.18265522 -0.36788055 -0.27260488 -0.37031114
-0.22494793 -0.29181373 -0.31314325 0.014376854 0.08443746 0.0015696088 0.097236976 0.046427924
-0.032172624 0.0836352 0.104651675 0.120438606 0.027606698 0.03393833 -0.055659797 -0.009742285
-0.07167755 -0.084973596 0.01521414 -0.011943974 -0.017042512 -0.036897384 0.08844735 0.029718671
-0.094180666 -0.042509712 -0.10571182 0.053010944 0.05398764 -0.052514464 0.00048042907 -0.059362452
-0.017090738 -0.026096562 0.02211327 -0.0392625 0.053378496 -0.09491724 -0.14088336 -0.092426255
-0.23003668 -0.2774146 -0.032939605 -0.13770686 -0.19728534 0.02747677 -0.18675017 -0.25401187
-0.144984 -0.029663792 -0.14779364 -0.20292905 -0.0745802 -0.10486395 0.096385114 0.059231132
-0.04029393 0.05643608 0.08526029 0.1014386 0.026691299 0.041779906 0.02043896 0.022320079
0.031730097 -0.08368631 -0.36008385 -0.3191968 -0.23028845 -0.25450596 -0.12691928 -0.11425601
-0.24023652 -0.36103255 -0.23464794 -0.029878903 -0.052125946 -0.020828309 -0.14262587 -0.15194596
-0.1759594 -0.076492116 -0.08944 -0.09878457 -0.008654678 -0.06294889 -0.014201196 -0.103228174
-0.10458217 0.007942536 0.06879378 0.018601868 -0.011880472 0.015248457 -0.1067302 -0.024202
-0.07466569 -0.0026403177 0.03403925 0.011043882 0.03575442 -0.091364406 -0.085116535 -0.022448016
-0.024950927 -0.26569977 -0.16407572 -0.31483024 0.014461847 0.042379975 0.09048107 -0.1984729
-0.20739947 -0.2356566 -0.08931334 -0.25300676 -0.12356105 0.13353287 0.014320365 0.08728675
-0.018404113 0.06393238 -9.495562e-05 -0.000389956 0.12588543 0.14508931 0.1406818 0.09815496
0.063426025 -0.09581798 0.059773106 0.069568105 0.057391904 0.075667664 0.057160225 0.035704665
0.045984745 0.025983293 0.013327806 0.07365102 0.031162007 -0.021668173 -0.013665585 0.03238821
-0.09129607 -0.09321047 -0.20412377 -0.075835004 -0.0017184037 -0.08603864 0.065254584 0.11819213
0.060986776 0.00021883384 0.10526068 0.047462117 0.0014141998 -0.062456515 0.04459818 0.01956197

model.3.bias f4 [32]
00000000: 9c72 07be bd45 bd3c 2dbc 89bd 4cae abbd
00000010: 14fd 34be bc92 73bd 35b9 85ba 6a6c 92bd
00000020: 0997 78bd 98ad 71bd 039a bcbd e447 cbbd
00000030: f544 9abd ad13 cbbd 08c3 c5bd 697b 06bc
00000040: 0829 703c 5a7e bc3b b31e 1d3d fc37 fcbd
00000050: 97e2 84bd 03e0 e4bd 918d 67be 2c36 edbd
00000060: 77a4 42bc 6274 b73c 0a55 aa3d be6c 36bd
00000070: f7a8 b5bd b226 cbbd 770a f13d f991 bcbd
-0.13227314 0.023104543 -0.06725345 -0.08382854 -0.17674667 -0.05946611 -0.0010202291 -0.071495846
-0.060690913 -0.059003443 -0.09209063 -0.099258214 -0.07532684 -0.09915862 -0.0965634 -0.008208134
0.01465822 0.005752367 0.038359355 -0.12315366 -0.06488531 -0.11175539 -0.22612597 -0.11582598
-0.011880032 0.022394363 0.08317001 -0.0445373 -0.08870118 -0.0991949 0.11769574 -0.092075296

model.6.weight f4 [64, 32, 3, 3]
00000000: aa1c 7f3c 108e 31be db64 c1bd c3ef ad3d
00000010: 9b55 3dbe 715e 3abd ab12 3a3e 45d4 28b9
00000020: 2648 2cbd c05e b03d 47c1 0d3c 6ab8 94bb
00000030: c222 873d b3a1 213d 1f10 123c 408f 40bd
00000040: 3ca4 d4bc 5d67 06be 0158 ec3c 507a 55bd
00000050: e997 fabd ab90 18be 36d2 5dbd 647b 1ebe
00000060: 999e 41be cda1 49bd 396d 10bd 88a3 42bd
00000070: 6ff8 063d a015 5cbd f97b 9ebc 5539 debc
00000080: bbe4 d3bb 0672 86bd 57e1 273d a707 713c
00000090: 666e a5bd b876 7cbe bc65 7bbe 1dd0 0dbe
000000a0: aa36 57be c9ad 10be cc13 12bd f107 a6bd
000000b0: c06f 7a3d e6cb 6d3d 34ca 29be 3212 bc3d
000000c0: 348a 70bd e4ca 47be f0fb 663d a912 a6bd
000000d0: f8fc 80bd e28f bb3d dd27 4bbb 7291 deba
000000e0: e97b 28bd b5c5 abbc 020f 243c 0d25 70bc
000000f0: 9d83 613c a2c3 26bd 47fc 1b3a f84a 7ebd
00000100: 8487 9bbd 3dd0 30bd 43ae 7cbd 3685 f3bc
00000110: 1908 20bd 194c 1a3d b979 ac3c b373 d9bd
00000120: b592 5abe d818 f2bc d9e6 5d3e 2bfc 38be
00000130: 15d8 8dbd 8e19 343e 5840 49be 9032 59bc
00000140: 826f 273e a7eb d03c ed25 933c 611a 1c3b
00000150: d5ed 403d bde3 b03b 22bb f53b 828b ac3d
00000160: 2fcf 113d 057d e4bb f438 47bd ffaf 2cbd
00000170: 54e9 e83c 6c21 f2bc 5a51 1e3c 5a5b 833d
00000180: 7c63 173d d490 a23a 9a96 0bbd 0a33 eebc
00000190: 5933 4cbd 6ae3 9dbc 96bc b4bc 5105 23bd
000001a0: c7bc 43bc 4e7c c2bd 90b6 dbbd b6ad 88bd
000001b0: 7fce dbbd b51f 13be cff8 2d3e 030f f83c
000001c0: 84a4 bebd f6f9 233e 0bd5 39bc b8a9 5e3d
000001d0: 96e8 f53d d281 00be 4db9 65bd c3f4 0dbe
000001e0: 8782 5f3d ed20 e83c b78a 1c3c d63e 783d
000001f0: 14d9 613d ca89 2b3d 3c21 a63c 6b44 c73a
00000200: 4dbf 173c 41e4 50bd 3910 733d 26db 89bc
00000210: 11df 273d 6a9f 443d 511d bcbc 0f33 85bd
00000220: be72 b13b cb5f bdbc 1a23 15bd 1c2d 363d
00000230: 2dfa a0bd 28de ffbc 79a1 bfbc ae58 03bd
00000240: 0a41 99bd 47ad cdbd 3894 af3d d19a d2bd
00000250: 3e77 8d3b 2f22 9f3d d329 39be 903f c9bd
00000260: 8519 3c3d e90f 8e3d d12c 693c 1798 7f3c
00000270: e1d7 9c3c c66c 8bbc cda6 26bd 5fa7 463c
00000280: c546 773d 48f1 2c3c 2203 0c3d 14c6 0fbc
00000290: 2359 173d 369b a239 50bd 17bd a332 9bbc
000002a0: 2b51 753d bdfd dc3c d15d 743c 33a7 f53d
000002b0: f392 0a3d 0416 883d c8fd 34bd a5af 9f3b
000002c0: 8cc6 4f3d ef45 2dbd 1e12 82bd f4fc c73b
000002d0: 0c3f 07be a2b8 35be 5a43 13be efc3 4fbe
000002e0: 4be2 69be 16d5 c4be 40ac 85be da64 4bbe
000002f0: ddd8 99bd ea5c 5abe c101 babd a1be 813d
00000300: b83f 50be 749d d7bd fe51 37bd db86 40be
00000310: 7718 15be ddf5 d7bd 5d31 d6bd 674c 0dbe
00000320: 6cdf e0bd 5b14 08be bae9 05be 0ed5 09be
00000330: 9d72 1ebe 6229 38be 34ae 1dbe ed6b d03a
00000340: 23fc 223d 5140 003d e6c6 183c 0b2e edbb
00000350: 3e62 2d3d 5404 583d b1b4 613c 70ce 2e3d
00000360: 796a dd3d cb6a 323e 88b4 073d a12e aa3d
00000370: e559 b93c 275d f13d 0eca 95bd c3e3 7f3d
00000380: 27ef 573e 1210 0b3d a27b 49bd 884a 8bbe
00000390: f77b b3bc eb50 633d a0dd a5bd c641 a1bd
000003a0: 4efd 413e 10cb 8bbd 9d7c 81bc a972 7b3d
000003b0: 852c 7ebd 7d50 17bc a2fa b63d d87e 93bd
000003c0: 9b62 91bd a99c 1b3d 6cad eabd cd13 163c
000003d0: ec68 3cbd aba8 17bc d063 a33c 5241 c6bc
000003e0: 34ab aebd f55c db3c af54 e33d a291 ed3d
000003f0: 2f42 a23d a9d3 263e afae cabd 0552 86bd
0.015570799 -0.17339349 -0.09443065 0.084929965 -0.18489687 -0.045500223 0.18171184 -0.00016100805
-0.042060994 0.08611822 0.008652038 -0.0045385854 0.065984264 0.03946085 0.008914976 -0.047011614
-0.02595722 -0.13125367 0.028850557 -0.0521186 -0.12236006 -0.14898936 -0.05415555 -0.15476757
-0.18908156 -0.04922657 -0.035260413 -0.047519237 0.03295177 -0.05373156 -0.019346224 -0.027126947
-0.006466476 -0.06564717 0.040986385 0.014711297 -0.080776975 -0.24654663 -0.24550527 -0.1384892
-0.21016946 -0.14128794 -0.03566341 -0.081069835 0.06114173 0.05805578 -0.1658104 0.09183158
-0.05872555 -0.1951099 0.05639261 -0.08109028 -0.0629825 0.09158303 -0.0030999102 -0.0016980602
-0.041133795 -0.020968297 0.010013344 -0.014657271 0.013764289 -0.040713914 0.0005950373 -0.062083215
-0.07594207 -0.04316734 -0.061689626 -0.029726606 -0.039070223 0.03767023 0.021054136 -0.10617771
-0.21345027 -0.029552862 0.21670093 -0.18064944 -0.0692598 0.17587873 -0.19653451 -0.013256684
0.1635113 0.025502993 0.01796242 0.0023819434 0.047101814 0.0053982423 0.0074991146 0.084250465
0.035597976 -0.0069729113 -0.0486383 -0.04216003 0.028431572 -0.029556952 0.00966295 0.06413908
0.03696011 0.0012402781 -0.03407917 -0.029077072 -0.049853656 -0.019273479 -0.022062581 -0.039799992
-0.0119468635 -0.094963655 -0.107281804 -0.06673758 -0.107327454 -0.14367564 0.16989444 0.030280596
-0.093087226 0.16013321 -0.011342297 0.054361075 0.12007253 -0.12549523 -0.05608492 -0.138629
0.05456784 0.028336013 0.009554557 0.0606068 0.055138662 0.041879453 0.02027952 0.0015202885
0.009261918 -0.05099893 0.059341643 -0.01682813 0.040984217 0.04800359 -0.022963198 -0.06503879
0.0054152897 -0.023116967 -0.03641043 0.044476613 -0.07860217 -0.031233862 -0.023392426 -0.032066993
-0.07483108 -0.10042816 0.08573192 -0.10283435 0.0043171933 0.07770192 -0.18082361 -0.09826577
0.045922775 0.06936628 0.0142318765 0.015600226 0.019145908 -0.01701964 -0.040686417 0.012124865
0.060370225 0.010555573 0.034182675 -0.008775253 0.03695024 0.0003101469 -0.037045777 -0.018945044
0.05989186 0.02697646 0.014914946 0.11994781 0.033831548 0.06644824 -0.044187337 0.0048732334
0.05072646 -0.042303022 -0.06351112 0.0061031524 -0.13207644 -0.17746213 -0.14381161 -0.20289586
-0.2284023 -0.38443822 -0.2610798 -0.1986269 -0.075120665 -0.21324506 -0.09082366 0.06335188
-0.20336807 -0.10528079 -0.04475593 -0.18801443 -0.14560114 -0.105449416 -0.10458634 -0.13798676
-0.10980114 -0.13289015 -0.13077441 -0.1346018 -0.15473409 -0.17984536 -0.15398484 0.0015901305
0.039791238 0.031311337 0.009324765 -0.0072381548 0.04233002 0.052738503 0.01377599 0.042677343
0.10811324 0.17423551 0.033131152 0.08309675 0.022625873 0.117853455 -0.073139295 0.06247307
0.21087323 0.033950873 -0.04919017 -0.272053 -0.021909697 0.05549709 -0.08098912 -0.078738734
0.18944284 -0.068258405 -0.01580649 0.061388645 -0.062054176 -0.0092354985 0.08934523 -0.07201928
-0.070988856 0.0379912 -0.11458859 0.009159994 -0.0459985 -0.009256522 0.019945055 -0.024201069
-0.08528748 0.026777724 0.111001365 0.11600043 0.0792278 0.1629168 -0.098965995 -0.06558613

model.6.bias f4 [64]
00000000: 2e04 94bc d723 d13d 2bf1 223d cf46 06bd
00000010: 1aec 8abd b838 413d de49 45be 1a27 a2bd
00000020: c09a 393c 4728 b6bd bc08 20be c8fe 27be
00000030: a3eb 06be 8781 1ebd 7c6a f6bd 34c2 76be
00000040: bcc3 e5bd e42f 8abd 16f9 a8bd 1b15 bbbc
00000050: 7ff6 d73c 801f 5dbe dce7 d1bd ed2a 5cbc
00000060: 0ee3 cdbd d3bf 8abc 4f9f 0dbc d5b6 dabd
00000070: b506 c1bd c473 e8bd 04c6 5a3d e31e 7dbd
00000080: e67f e9bd 0afc 93bd 37b9 b5bc a49b 3fbe
00000090: ee2d 18be 1032 4c3e 9300 0dbe 6e5b 65bd
000000a0: 31fc edbd 6a18 a1bd afff 24be fd25 91bd
000000b0: 1a75 61be f85e 34be 0395 dc3c 1ebc a2bd
000000c0: 657b 573d 8d2e 16be 7fb8 42be 4d1b f1bd
000000d0: f386 9fbe 961d 893d 6507 8b3c 6a3a e43a
000000e0: 13cb a1bd 65cc 82bd 6cc5 123d 7404 66bd
000000f0: 91ac 0d3d 0764 e03d 0f8a b9bb 93ec 04bd
-0.0180684 0.10211914 0.039780777 -0.032782372 -0.06783314 0.04717323 -0.1926646 -0.07917614
0.011328399 -0.08894401 -0.15628332 -0.16405785 -0.13175826 -0.038697746 -0.12032029 -0.2409752
-0.11218974 -0.06747416 -0.08250634 -0.022837212 0.026362656 -0.21594048 -0.10249302 -0.013437969
-0.10053073 -0.016937172 -0.008643939 -0.10679404 -0.094251074 -0.113502055 0.0534115 -0.061797034
-0.11401348 -0.07225807 -0.022183044 -0.18711716 -0.14861271 0.19940972 -0.1376975 -0.055995397
-0.11620367 -0.07865985 -0.1611316 -0.07087324 -0.22017327 -0.17614353 0.026926523 -0.07946037
0.052607913 -0.14666195 -0.19015692 -0.11772785 -0.31157646 0.06695096 0.0169713 0.0017412428
-0.079000615 -0.063866414 0.035832807 -0.05615659 0.0345884 0.10956579 -0.00566221 -0.032452177

model.9.weight f4 [128, 64, 3, 3]
00000000: b648 2bbe 8005 4bbe f2e6 68bd b98f 17be
00000010: c9a2 b9bd d2ca 19bd 62c2 b63c 2a1a 413d
00000020: 98c8 fb3d 42fd 593d 7f76 1fbc 0c64 5f3c
00000030: 4547 193d 4e85 5abc 5b8d cebc 3b12 633d
00000040: 7ef0 25bd 1659 253d 3cba 75bd 1c9a 6ebd
00000050: 2e2a 31be 51b6 28be 2dd2 77be c389 71be
00000060: be7c 463c f391 d9bd 90b0 6bbe 30e0 7f3c
00000070: 092d fabc ff9d bb3d 2d6c 4c3e b5d9 1c3e
00000080: 38b5 df3d 4bcd 0b3e 895f adbc 72f7 d5bc
00000090: 4ddf a73d 8bd8 bc3d 6b8b d33c fa71 b4bc
000000a0: 553d 09bd 4c86 45bd 0c49 47bb 248a 08bc
000000b0: 274b 8f3d 600e 87be a8a8 82be bed3 98be
000000c0: 1497 79be fd51 99be 44a4 9dbe d5b0 3dbe
000000d0: ef6d 82be 5511 65be 0c3e 53bd fde5 84be
000000e0: 5680 68be 2e78 86bd e5ae 7bbe 2ca1 08be
000000f0: 2cce 763c 6171 67bc 5985 78bd fc6f 023e
00000100: 398c 3e3c 515d 023e 940c d13c 839d 3d3d
00000110: 4c9c c23d a479 0d3d 53c5 1e3c 55cf e23c
00000120: cb8b 90be 5a0f 58be c114 6bbe 8ca4 80be
00000130: 1884 77be bbdc 6ebe fe53 c3bd dee3 f1bd
00000140: 14c5 85bd 214a 08be 1c14 b93b 91ee 14be
00000150: 1610 7cbd cfcc 4abc 0cd4 9cbd 9995 383e
00000160: bda2 993d 20d8 ff3d 101b 693e 29f0 353e
00000170: 610d 4c3d 753d 06be 3607 36bd a0a4 35be
00000180: 9cec cbbd 5cea 18be 1197 52be de94 b53d
00000190: bbde da3d 32ff 7e3d 8f23 d63d 2451 363d
000001a0: 0486 0ebc 728d 3c3d 8aa8 3c3d 1e4d 0e3e
000001b0: 7a4a e9bd 7af3 51bd 9fa5 57bc 0ec2 27be
000001c0: aaf5 6dbd 04f8 49be aa19 1bbd 4f2b c1bc
000001d0: 0da4 5dbe d9cf efbd d34d c8bd a676 0cbd
000001e0: 049c 63bc e1a9 0cbd 9edf 0cbd 6023 b73d
000001f0: 9d37 7f3d 3123 b73c 99b7 05bd 974f 053a
00000200: 07f5 8d3d 38a6 03be 8138 c6bd dbaf 93bd
00000210: 3846 14be b54b 64be 599f e2be 4a65 13be
00000220: 5a2e 9e3c f611 d7bd b7a0 fbbd fb30 61bb
00000230: f970 01be 5249 1abe 643b 09be 321b 30be
00000240: 3dfd 0cbe a841 093b b421 5d3d 7dc9 ffbd
00000250: ecd5 e9bd 7787 9abb 7c2b fb3c 596a 673d
00000260: be5c 813d 36bf ca3d 46cb 6a3d 6ea5 453d
00000270: 1dd7 cd3c 79af 5d3c 629d 6c3c 5e9c fabc
00000280: 10f6 8ebd 1e09 1ebd e9dd 303e 2b3c 1c3e
00000290: 7cdb de3d 6af8 7a3d b05f 10bc 080b 6e3d
000002a0: fa45 76bc fef2 9abd 9eab afba 2bac 7c3c
000002b0: 1353 df3b f198 6f3d fc21 9a3d 042e bbbc
000002c0: ac49 51bd 02e0 e53d 0827 d93d 32c4 a03d
000002d0: a4b6 32be 5191 c3bd 7814 30be 5e63 f7bd
000002e0: 019b a7bd 9eef 03be 0763 dc3c fc27 b4bc
000002f0: 2849 1bbc 8a9c 4d3d 83e5 413d fb29 4c3d
00000300: 0e49 3abd db74 48bd 0d2c 02bd c7f7 19bd
00000310: 78c6 ebbd 356d 84bd 81f4 05be ae54 96bd
00000320: 99cc 8c3c d1a2 efbd 277a 2abe f6c0 64bd
00000330: 374d d2bb 35af 22be 7425 8fbe c354 b93d
00000340: 7d5d bb3d 0088 893d 685f 013e fa89 ee3c
00000350: 3fe7 84bc a339 4e3c f8ce a93d ca1e e43d
00000360: 56cc cabd 1951 53bd 57eb c3b9 e1c9 64bd
00000370: e0ea e7bd 8264 f33b a4e1 083e 079c d53d
00000380: f36f b13c 1d40 753d ff3e f33c 9eb3 c33c
00000390: 63d9 af3d 95d2 fdbc 55d1 8d3d 3c9e d43d
000003a0: e737 1f3d 6ad4 9e3d 8ef3 52be f848 1ebe
000003b0: ed47 51be 7774 8bbd 1f90 5f3c 6935 cb3b
000003c0: 0878 8bbd eb18 4d3d 8a51 9a3d 1e19 e9bd
000003d0: 0122 8abc c639 7bbd 4fc4 4cbd cc8c 1dbc
000003e0: e957 8ebd 154d 0b3d 913d 113d 6ea2 a23d
000003f0: 5163 c5bd 15b7 63bd 5b79 ca3d b150 8fbc
-0.16726956 -0.19826317 -0.05686087 -0.1480092 -0.09064252 -0.03754694 0.022309486 0.047144093
0.122941196 0.05322004 -0.0097328415 0.013634693 0.037421484 -0.013337446 -0.025213888 0.055437308
-0.040512554 0.040368162 -0.05999206 -0.05825244 -0.17301247 -0.16475798 -0.2420127 -0.23587708
0.012114702 -0.10623541 -0.23016572 0.015617415 -0.030539053 0.09160995 0.19963141 0.15317424
0.109232366 0.13652532 -0.021163719 -0.026118968 0.08196888 0.0922099 0.025823316 -0.022027005
-0.033505756 -0.04822378 -0.003040853 -0.008333717 0.06996756 -0.26378155 -0.255193 -0.29849046
-0.24374038 -0.29945365 -0.30789387 -0.18524487 -0.25474498 -0.22369893 -0.051572844 -0.25956717
-0.22705206 -0.06565891 -0.24578436 -0.13342732 0.015063804 -0.014126153 -0.060674045 0.12738031
0.011630111 0.1273091 0.025518693 0.046292793 0.095024675 0.034539834 0.0096906 0.027686754
-0.28231654 -0.21099606 -0.22957136 -0.2512554 -0.24171484 -0.2332639 -0.095375046 -0.1181104
-0.0653173 -0.13309528 0.005648149 -0.14544131 -0.06153878 -0.012377932 -0.07657632 0.18025817
0.07501743 0.124923944 0.2276423 0.17767395 0.049817447 -0.13109381 -0.04444047 -0.1773858
-0.09957239 -0.14933151 -0.2056544 0.08866285 0.10687014 0.062255092 0.10456001 0.044510975
-0.008698944 0.04603333 0.04605917 0.13896605 -0.113911584 -0.051257588 -0.013162046 -0.1638262
-0.05809561 -0.19723517 -0.037866272 -0.023580221 -0.21644612 -0.11709566 -0.09780469 -0.03429284
-0.0138921775 -0.034341697 -0.034392945 0.08942294 0.062308896 0.022355648 -0.032645795 0.0005085407
0.06931501 -0.12856376 -0.09678746 -0.07211276 -0.14479911 -0.22294505 -0.44262198 -0.14394107
0.019309212 -0.10501473 -0.12286513 -0.003436147 -0.12640752 -0.15067032 -0.13401562 -0.17197874
-0.13768478 0.0020943675 0.05398722 -0.12489603 -0.114177555 -0.0047158557 0.030660383 0.056497905
0.06316517 0.09899752 0.057322763 0.04825347 0.025126988 0.0135306055 0.01444182 -0.03059214
-0.069805264 -0.038582914 0.17272152 0.15257327 0.10881707 0.061272062 -0.008811876 0.05811599
-0.015031332 -0.07565878 -0.0013402586 0.015421907 0.006815323 0.058495466 0.07526013 -0.02284909
-0.05109565 0.11224367 0.10603148 0.07849921 -0.17452484 -0.09549201 -0.17195308 -0.120795
-0.081838615 -0.12884375 0.026902689 -0.021991722 -0.009477891 0.050198115 0.04733802 0.049844723
-0.045479827 -0.048939567 -0.03178029 -0.037589815 -0.11512464 -0.06466142 -0.13081552 -0.0734037
0.017187404 -0.11700977 -0.1664816 -0.055848084 -0.006417896 -0.15887149 -0.27958262 0.0904937
0.09148691 0.06715393 0.12634051 0.029118527 -0.016223548 0.012586984 0.08291429 0.11138685
-0.09902255 -0.051591013 -0.0003736864 -0.05585659 -0.11324096 0.007427753 0.13367325 0.104301505
0.021659827 0.059875596 0.029693125 0.02388936 0.08586385 -0.030984202 0.069246925 0.10381743
0.038871672 0.077553585 -0.20600721 -0.15457523 -0.20437594 -0.06809323 0.013645201 0.0062014353
-0.068100035 0.05007259 0.075350836 -0.11381744 -0.016861917 -0.061334394 -0.049991902 -0.009616088
-0.06950361 0.034009058 0.035459105 0.07941137 -0.09638084 -0.055594523 0.09886428 -0.017494531

model.9.bias f4 [128]
00000000: 71d2 d83d d1d7 133d 6244 e2bd 88dd 23be
00000010: b463 15be 6785 1cbd 2133 c63c 8cfb 84bd
00000020: bd46 87bd 721d 05bd a334 24bd b69c 683d
00000030: f25d 28bd 207a 14be 030c e9bd 7f89 2bbd
00000040: 2357 c3bc ca04 11bd 1c15 23be 681a 733e
00000050: c66c 33be a5f6 0dbd 5449 17bc 86e8 953d
00000060: 425b bcbd 6a88 a0bd e048 16bd f341 31be
00000070: 9c4a 623d d097 063e fba2 9cbd 8e80 7abd
00000080: 838c 7bbd 5aa3 7f3c f55e 813d d804 d2bd
00000090: b399 20bd 9a05 06bd 9692 a2bd e31b e1bd
000000a0: fd9c f0bc e187 04be 2bdc f7bd 7463 74bd
000000b0: b4a8 f1bd 39e4 38bd 971e f7bc 447d 96bd
000000c0: 7192 aabd 139a b63a 70bb 2a3e 3aa3 89bb
000000d0: 3741 5dbd 12d1 0bbd 7fbf 8dbd 1019 a7bc
000000e0: 8e41 61bc 28e8 0c3c f2e5 5bbe e9d4 0fbe
000000f0: 7090 94bd 2013 88bd 82d8 9fbc 5803 98bd
00000100: 4f41 febd ba22 49bd 240f 70bd edb8 c3bd
00000110: 5b67 77bd d6be f8bc adac 31bd 9de5 a3bd
00000120: bb50 72bd c8c0 4cbc 5a47 50bd a0b8 803d
00000130: b31a 163d d689 a4bd 04af 6abd adab 2fbe
00000140: 55c1 dcbd f556 4ebd 51b1 e7bd 99ad 74bd
00000150: c912 873d 1181 32be 14f3 28bd 2da0 38bc
00000160: ea59 41bd 94a8 dbbd 789f 36bd bb6b dabd
00000170: 8594 1ebd 2c3f 1dbe 1b91 933d fd98 c3bd
00000180: 7317 bfbd 3fee 89bd e460 52bd 226d 87bd
00000190: a5d7 bc3d c82b b9bd f947 2dbc 7cfc 7abd
000001a0: f820 4f3c aea5 01be e53b 56bd 8860 a63c
000001b0: f4a4 d3bd 2f20 fcbd 7207 81bd d962 04be
000001c0: c016 e43c 1811 a5bd baa1 99bd 62c5 5ebc
000001d0: b6b3 74bd fe26 b2bc fd47 d1bd 4819 96bc
000001e0: 0032 14be 4044 7b3d 1d7c 2bbe f898 9cbc
000001f0: 38f0 a13d 422c 44bd f82c 5e3d 2095 8abd
0.105870135 0.03609449 -0.11048199 -0.16002476 -0.14588815 -0.03821316 0.024194302 -0.06493291
-0.06605289 -0.032498784 -0.04008926 0.056790076 -0.04110522 -0.14499712 -0.11379244 -0.041879173
-0.023845261 -0.035404958 -0.15926021 0.23740542 -0.17521963 -0.034659047 -0.009233791 0.07319741
-0.091970935 -0.07838519 -0.036690593 -0.17310314 0.055246934 0.1314385 -0.076482736 -0.061157756
-0.0614133 0.015602911 0.0631694 -0.1025483 -0.03920908 -0.032720186 -0.07938115 -0.10991647
-0.029371733 -0.12942459 -0.121025406 -0.05966516 -0.11799756 -0.045139525 -0.030165954 -0.07348111
-0.08328713 0.0013931416 0.16673064 -0.0042003663 -0.05401727 -0.03413493 -0.069212906 -0.020397693
-0.01374854 0.008600272 -0.21474436 -0.14046063 -0.07254112 -0.06644273 -0.019512419 -0.07422513
-0.124148004 -0.049105383 -0.05860819 -0.09556756 -0.0604013 -0.030364435 -0.043377567 -0.0800278
-0.05915902 -0.0124971345 -0.050849296 0.062852144 0.036646556 -0.080341026 -0.057295814 -0.17155333
-0.10779063 -0.050375897 -0.11313117 -0.059735868 0.0659538 -0.17432047 -0.041247442 -0.011268658
-0.04720489 -0.10725513 -0.044585675 -0.10665079 -0.038715858 -0.1535613 0.07205411 -0.095506646
-0.093306445 -0.06734895 -0.051361933 -0.06612612 0.092208184 -0.09041554 -0.010576242 -0.061275944
0.012642138 -0.12660858 -0.052303214 0.020309702 -0.10334197 -0.12310826 -0.06300248 -0.12928332
0.02784288 -0.08059901 -0.0750155 -0.013596864 -0.0597417 -0.021747109 -0.10218809 -0.018322602
-0.14472198 0.061344385 -0.16746564 -0.01911591 0.07907146 -0.04789377 0.054242104 -0.067667246

linear1.weight f4 [2, 18432]
00000000: 883a 7d3d 48f2 613d 70f6 2f3d 1c17 e93d
00000010: 35fd c43d c959 163e 7cec 2f3d 2078 b33d
00000020: fbb4 ca3d f9d1 a63d d8f9 793d ff09 883d
00000030: 4ecf 553d 060b a43d 3846 8e3d 1f88 b43d
00000040: 9e03 c83d 23ba 903d 77dc 983d bf17 9e3d
00000050: cb2b ae3d dc5e 043e ab65 873d 69f6 af3d
00000060: cc8b 9b3d 3ceb b83d ed97 a03d 6f84 b03d
00000070: 92f9 153e 95ec 333e 717f 3c3e 2b20 133e
00000080: 2a32 e03d 5e79 a73d 38dd 5f3d eb26 763d
00000090: 4d9b 003e 982f 283e d575 993d 2967 c13d
000000a0: 2f23 f93d 3b16 073e a821 333e aa13 c13d
000000b0: c266 b03d 38fe 013e ee84 103e 8786 a63d
000000c0: b983 2b3e 1a05 af3d ed3c 083d 6800 6c3d
000000d0: 59fe 513d 6469 bf3d 58f4 1a3d 3d82 0b3d
000000e0: 7349 883d 7263 9b3d 7330 bb3c 6037 e53d
000000f0: 478e 903d 0d1d cb3c fc06 f4bc 0d80 3ebd
00000100: 8d50 b6bd 432d 90bd 8a4e cdbd ea74 cebd
00000110: 3d9c 28bd f338 5dbd 1f78 09bd b85c cb3c
00000120: 3927 213d aba4 3d3d 530e 45bd 1dbe 5fbd
00000130: 2da4 d8bd 6956 8fbd ab96 02be d1da f2bd
00000140: f06a debd 9ae8 4fbd e285 043c 5abe 02bd
00000150: c10c 1f3b 2ff0 07b6 dd8c 95bc 221f 07bd
00000160: a633 43bd 9f7c 92bd d3ed 4dbd d586 a9bd
00000170: 7013 7abd b5dd 85bd c77b 0abd ce26 25bd
00000180: 50c4 bfbc 00db 2abd dd36 9dbb e855 4dbd
00000190: bdd2 62bd 9845 f3bd 16f4 0cbe 2922 0cbd
000001a0: 8291 3ebd c0ea 1fbd 5a40 e2bc cc1f ef3b
000001b0: 4f85 033d 13ce fe3b 313e 33bc ca59 e9bc
000001c0: f51e a1bd 0e2f 90bd 104e 02be 6670 56bc
000001d0: b278 f9bc b989 f3bc 1110 44bd 1be1 d93c
000001e0: 2751 863d e134 673d 8210 b83c 8ac6 a9bd
000001f0: d723 01bd 37d4 95bc 152d 51bd 2c69 963d
00000200: 99b2 393c b8f2 833b f437 d73c 17d9 5f3d
00000210: 067b 6dbd 6aec aebc 156a 9e3b 88ce b7bc
00000220: 609d a13d 2771 853c ec4e 733d cf7e 203d
00000230: 41a1 c7bc 3998 623c a453 23bc 8639 27bd
00000240: 0e31 ab3c 7cb9 923d 4a54 1cbd 58fc 22bc
00000250: 858e 15bd 3bbd 58bd 8acf aebb 9442 71ba
00000260: 7300 04bd 66e5 8ebd c2bf bbbc 2d30 113d
00000270: 15b4 74bd 4a28 86bd 5398 a4bd f192 33bd
00000280: 0327 dbbd 2495 a83b 71eb db3c 3ab6 24bc
00000290: 4d1b 83bd fec8 3a3c b16f e43d 132a f53c
000002a0: 453d 2cbe 633f 17be 86b9 b3bd 2a32 c5bc
000002b0: 856b 3fbd d5ae 09bc ce46 903c f6bc 433c
000002c0: f3c4 29bc b0e3 d7ba ab55 18bd b422 99bd
000002d0: 7b67 b6bd 1173 a1bc e463 b93c 5e83 823d
000002e0: e37d b23d 7770 5a3d f875 043d 2a20 073d
000002f0: 11e4 ecbc 49c1 dfbc 4bbf bc3c 299e 813c
00000300: d247 e3bb 99db ccbc 34fb 653d 5740 ad3d
00000310: 2718 11bc b08a 063e 9ae9 8e3d a4a0 8c3d
00000320: 2fb8 583d d270 9c3d e5ef bc3d f106 2a3d
00000330: 3258 8fbc 557a 5ebd cd0e b4bd 12ce 04bd
00000340: 165d 97bd 1efa 583d 6a0a ee3c dbba 0f3d
00000350: 58f3 023c 13a5 213d af60 103c b98b 1cbc
00000360: 792d 08be 2544 21be 2b63 f5bd aa1e 3dbe
00000370: 4f07 febd 48df 41bd 7079 82bc bceb a4bd
00000380: 5586 95bd 4fb5 b0bd 6df0 06bd 941f 3abd
00000390: 702f 0cbe 4973 a1bd f476 6fbc 30b3 b4bd
000003a0: ff60 69bd 0163 89bd 5b13 5abe 1f2c 34be
000003b0: 959a 92bd fb90 fbbd f4ad 96bd 5d1a 87bd
000003c0: c948 0ebe ad2b 10be 1a84 0abe e395 8bbd
000003d0: 48de ffbd cc8f 4ebe df66 0dbe f759 10be
000003e0: 8999 38be 041a 28be 85d4 d7bd ffba 10be
000003f0: a360 30be e0fa 3dbe 14b2 29be aa24 21be
0.061823398 0.055162698 0.04295963 0.11381361 0.09618608 0.14682688 0.04295014 0.087631464
0.098978005 0.08145518 0.061029285 0.066425316 0.052199654 0.08009915 0.06946987 0.088150255
0.09766315 0.07066753 0.07463925 0.07719373 0.085044466 0.12926811 0.066111885 0.08591921
0.075950235 0.090292424 0.078414775 0.0861901 0.14645985 0.17570718 0.1840799 0.1436774
0.10947068 0.08177446 0.05465433 0.06009571 0.12559243 0.16424406 0.07493178 0.09443504
0.12164914 0.13192074 0.17493308 0.09427579 0.086133495 0.12694633 0.14113209 0.08131128
0.16749467 0.08545895 0.03326123 0.057617575 0.051267955 0.093462735 0.03783068 0.03405975
0.06654634 0.07587327 0.02285025 0.111922026 0.07058387 0.024794126 -0.029788487 -0.046508837
-0.089020826 -0.07039883 -0.10024746 -0.10080893 -0.041164625 -0.05400939 -0.033561822 0.024824485
0.039344046 0.046299618 -0.048109364 -0.054624666 -0.10578189 -0.06998903 -0.12752788 -0.11858142
-0.108602405 -0.050758936 0.008088561 -0.031919815 0.0024269077 -2.0256373e-06 -0.018255645 -0.032988675
-0.047656678 -0.07152676 -0.050275635 -0.0827767 -0.061053693 -0.06536428 -0.03380945 -0.04032021
-0.023409039 -0.04171276 -0.0047978 -0.050130755 -0.055376757 -0.11878508 -0.13764986 -0.034212265
-0.046525486 -0.039042234 -0.027618576 0.0072974917 0.032109555 0.007776031 -0.010940121 -0.028485198
-0.07867233 -0.07040225 -0.12725091 -0.013088321 -0.03045306 -0.029728757 -0.047866885 0.026596596
0.06558447 0.056446914 0.022468809 -0.082898214 -0.03152832 -0.018289668 -0.051068384 0.07344279
0.011334085 0.004026737 0.026271798 0.054650392 -0.057978652 -0.021352965 0.0048344233 -0.022437349
0.07891345 0.016289307 0.059401438 0.039183434 -0.024368884 0.013830238 -0.009968672 -0.040826343
0.020897415 0.071642846 -0.03816632 -0.009947859 -0.03651287 -0.05291484 -0.005334799 -0.00092033413
-0.03222699 -0.06977348 -0.022918586 0.035446335 -0.059742052 -0.06550653 -0.08036866 -0.043841306
-0.107008 0.005144732 0.026845666 -0.010053212 -0.064016916 0.011400459 0.11154116 0.02992729
-0.16820247 -0.14770274 -0.0877562 -0.024071772 -0.046733398 -0.0084035 0.017611887 0.011946907
-0.010361898 -0.0016471054 -0.037191074 -0.07477322 -0.08906456 -0.019708188 0.02263064 0.063727126
0.08715417 0.05332991 0.032339066 0.03298966 -0.028917344 -0.027313845 0.023040434 0.015822487
-0.006936052 -0.025007056 0.05614777 0.084595375 -0.008855856 0.13138843 0.0697815 0.06866577
0.052910026 0.07638706 0.09225444 0.041510526 -0.01749811 -0.054315884 -0.087918855 -0.032423086
-0.073908016 0.052972905 0.0290577 0.03509031 0.007992588 0.039464068 0.008812114 -0.009554797
-0.13298596 -0.15748651 -0.119818054 -0.18468729 -0.12403738 -0.04733208 -0.015927047 -0.08052775
-0.073010124 -0.08628332 -0.03294413 -0.04544027 -0.13689971 -0.07883317 -0.014615763 -0.0882324
-0.05697727 -0.067083366 -0.21296446 -0.17594956 -0.071583904 -0.12283512 -0.07357398 -0.06596825
-0.13894953 -0.14079161 -0.13526955 -0.06815698 -0.12493569 -0.20172042 -0.13808773 -0.14096819
-0.18027319 -0.16416174 -0.10538582 -0.14133833 -0.17224364 -0.18552732 -0.16571838 -0.15736642

linear1.bias f4 [2]
00000000: bd3c 2b3e c5b3 2dbe
0.16722389 -0.16963108
